Model/ANN_Model.pt (torch, 548188 bytes, 6 tensors)

network.0.weight f4 [381, 8]
00000000: 8907 663e 7948 22be 18fa 98be 2917 b8bd
00000010: 2261 353e 7492 4ebe d216 26be 1bbd 21be
00000020: d3cd d9bb f4b7 a3bd 0a4b 28be 09ae 92bd
00000030: 6d7c a3bd 605a fdbd b323 8fbe ca21 35be
00000040: 5500 0c3e a3f5 fcbd 295f 8e3b 60fb 913c
00000050: 752e f7bc 4d50 4abe 32da 823d c6e1 b73d
00000060: 9930 efbd f43c 673e d29d 1c3e a738 12bd
00000070: 7d5c 0dbe 937e 0e3e 6fcc aebe 1b28 06be
00000080: 3973 9f3e 66f4 0f3d 74da 9abf 75ea d13d
00000090: 7917 4ebe 19ae 85be b7a7 56bd 783c 21be
000000a0: 5688 36be b787 e4bc d7f4 f23b 79ab 4bbe
000000b0: 8bcb 623d 9f8c 0ebe 95dc 86be 7049 04be
000000c0: d658 b4be e9ba f13c 3d5e f83c d395 853e
000000d0: 651b 6c3d 517d f0bd 04c1 1ebe 2847 4c3e
000000e0: 3083 a3be 3325 763e 8233 35bf 9980 ef3b
000000f0: bffa b7bd 1742 a6bd 1888 853e e1ab a4bd
00000100: c02e 253e 127e 6c3e cbc0 33be b45c d7bd
00000110: dfa5 97be ac30 1a3e a70e 10bf 5c23 09bf
00000120: e419 20be 9b10 ffbd 58b3 b3bd 30d8 513e
00000130: 4f28 253e a010 1abd 3d69 91be 2a3a 173e
00000140: d768 bdbe b646 bcbe 74bd 573e be78 f9be
00000150: 4cd5 2fbe 330d 2b3d 1da0 2f3e 6ba5 dbbe
00000160: 8181 ff3d 9563 353e 6644 84bf 606b f63b
00000170: f26a 57be ff96 963e 09ba 173c 6609 a6be
00000180: d318 03bd 1c8f a53d ac53 08be 151f 8cbe
00000190: 0830 05be 0d67 1c3d 3765 0ebd 2ab8 84be
000001a0: 113a 0a3d 9cf5 973e bcce 40be 3e2a f63c
000001b0: bce4 28bf 6c81 533e 019f 8fbe a76d aabe
000001c0: 585e d9be 0a5c b0be 8263 80bf ecc9 51be
000001d0: d83e 0dbe 9363 103e 8cbb 38bd 42f1 03be
000001e0: dc9a 313e 0e99 c9be 9a03 12bf 1ce0 113d
000001f0: 88a5 8c3d 39fb cebb 53a3 e8bc 074e 61bb
00000200: 73f5 963e d5c6 603d 6fe0 b5bd 5c5c 75be
00000210: aa91 8bbf 7c90 1ebf 5381 b53d 57a3 4b3e
00000220: 5d5f 2c3e 1dfc 70be ea53 ac3e 39c0 d0be
00000230: 06af 09be 2630 7a3e fa35 f13d dbf6 4b3d
00000240: f318 32be 4d37 a6be e112 ea3e 4075 08bf
00000250: 18c8 99bd bc3f 00bf 78e5 26bf 355f bdbb
00000260: 4991 6d3d 1321 be3e fa46 8f3e d8e2 a63c
00000270: d989 a1be 3598 08be 93d5 ce3d f16e d5be
00000280: d6a8 99be dbdf 8dbe 1140 63bf be3f bdbe
00000290: d93f 883d ec3c a9bc 4c51 103d 8150 413d
000002a0: b1f8 c4be a6b4 c8be 0401 5dbf c8b1 143e
000002b0: 99c3 70be ee64 4b3e 1189 8c3d ce5a 33be
000002c0: b583 febe 9119 b13e 64ea ae3e 3002 9bbd
000002d0: a4d1 91be b7b3 97be be49 153e 8d47 a5be
000002e0: e70d 91be 232a 8bbe e99c 09be 7341 84bc
000002f0: 6fd1 543d 3614 e23d e888 1dbe 15c4 2cbe
00000300: 72ba d4be 6974 633b 2d4b 6cbd 9180 6a3e
00000310: 8d52 6a3d c55f 9fbe 154c 63be 68b0 b73c
00000320: 1431 a6bd 009a 2abe a151 1ebd e0cf c6bd
00000330: 6701 da3c 9602 73be 052a dfbd 430d 503b
00000340: 0f03 2b3e c27b 73be 35fc c03c 6639 803c
00000350: d18a 4a3e f67e 92bd 46f2 9abd ff1e b43d
00000360: d259 14be 48a2 b8bb 02de dcbd 90be e9bb
00000370: 4065 94be 406f 68bc 16d9 b5be 157d 063e
00000380: ab50 413e 6ce1 00be fa3b a23e 6fb6 5a3e
00000390: 9cab 01bf 1e53 af3d acfb 54be ec62 0ebe
000003a0: 922c 013e b80d 01bd cbc8 dd3e f480 633d
000003b0: 0d8c 9fbe ad32 27be fb87 9cbd 036b 91be
000003c0: 808f 44be c711 75be c3c4 02be 7052 84be
000003d0: 06a7 a9be 4507 0dbe b4db b03c ccbe c83d
000003e0: 76d8 4fbe e000 a8bd e70b bc3e d2b6 653d
000003f0: 719e 063d 3379 53be d4c2 5f3e 407d a43c
0.22463812 -0.15847959 -0.29878306 -0.089887924 0.17712834 -0.20173055 -0.16219643 -0.15794794
-0.0066468506 -0.07994071 -0.16434875 -0.07162101 -0.07982717 -0.12370753 -0.27956924 -0.17688671
0.13672002 -0.12351539 0.00434484 0.01782006 -0.03017352 -0.19757195 0.06389274 0.0897861
-0.11679191 0.22581846 0.15294579 -0.03569856 -0.13804813 0.13915472 -0.34140345 -0.13101237
0.31142595 0.035145186 -1.2097917 0.10249797 -0.20126142 -0.26109388 -0.05240604 -0.15745723
-0.17825446 -0.027896745 0.007414441 -0.1988963 0.055369895 -0.1392083 -0.26340166 -0.12918639
-0.35224026 0.029508071 0.030318374 0.2609087 0.057643313 -0.11742652 -0.15503317 0.19949019
-0.31936026 0.24037628 -0.7078172 0.007309031 -0.08983373 -0.081180744 0.26080394 -0.08040596
0.16131115 0.23094967 -0.17554013 -0.105157286 -0.29618737 0.1505763 -0.5627236 -0.5356958
-0.15634876 -0.12454339 -0.087744415 0.20492625 0.16128658 -0.03761351 -0.28400603 0.14768282
-0.3699405 -0.36772698 0.21068364 -0.4872493 -0.1717121 0.041760635 0.17150922 -0.4289964
0.12475873 0.17713769 -1.0333374 0.0075201243 -0.2103689 0.29412076 0.009260663 -0.32429045
-0.032006096 0.080839366 -0.13313168 -0.27367464 -0.13006604 0.038184214 -0.034764495 -0.25921756
0.033746783 0.29679573 -0.18828863 0.03004944 -0.6597402 0.2065484 -0.28050998 -0.33286783
-0.4245479 -0.3444522 -1.0030367 -0.20487183 -0.13793504 0.14100485 -0.045100734 -0.12885001
0.1734423 -0.39374584 -0.57036746 0.035614118 0.0686751 -0.006316569 -0.028398192 -0.0034378783
0.29484138 0.05487712 -0.08880698 -0.23961014 -1.0903828 -0.61939216 0.08862557 0.19886528
0.16833253 -0.23533674 0.3365777 -0.40771654 -0.13445672 0.2443243 0.11777873 0.049795967
-0.1739233 -0.32464066 0.45717528 -0.5330391 -0.07508868 -0.5009725 -0.6519389 -0.005779172
0.057999883 0.3713461 0.27983838 0.02037184 -0.31550482 -0.13339312 0.1009933 -0.41686204
-0.30011624 -0.2770985 -0.8876963 -0.36962694 0.06652803 -0.020658933 0.03523378 0.047195915
-0.38470986 -0.39200324 -0.86329675 0.14520943 -0.23512115 0.1986272 0.06862081 -0.17515108
-0.4970986 0.34589818 0.341632 -0.075687766 -0.28480256 -0.296293 0.14578912 -0.3228115
-0.2833092 -0.27180585 -0.13438763 -0.01614449 0.051957544 0.11039011 -0.15384257 -0.16871674
-0.41548496 0.0034706837 -0.05768888 0.22900607 0.057207633 -0.31127754 -0.22196992 0.022422984
-0.0811483 -0.16660309 -0.038652066 -0.09707618 0.026611997 -0.23731455 -0.108966865 0.0031746186
0.16700386 -0.23777679 0.023557762 0.01565237 0.19779517 -0.07153122 -0.07565741 0.087949745
-0.14487389 -0.00563458 -0.10784532 -0.0071333125 -0.28983498 -0.01418668 -0.35517186 0.13133653
0.18878429 -0.12585992 0.31686383 0.21358655 -0.5065248 0.08560775 -0.2079913 -0.13904923
0.12614658 -0.031507224 0.43317255 0.0555429 -0.31161538 -0.16327925 -0.07643124 -0.28401956
-0.19195366 -0.23932563 -0.12770371 -0.25844145 -0.3313524 -0.13772304 0.021589138 0.098020166
-0.20297417 -0.08203292 0.3672783 0.056082554 0.032865945 -0.20651703 0.21851665 0.020079255

network.0.bias f4 [381]
00000000: 82de 963d 7f5d 64be c2be 89be 6257 77bd
00000010: cbb5 a53d f51d 40be 5a0d 64be 6c09 66be
00000020: 9a83 f3bd eac3 8abe b304 84be 3730 31be
00000030: 95ee a6bc def3 b0bc 1474 7a3e 33df ee3d
00000040: 49a0 60be 6daf b9be df89 02bc 4fbd 15be
00000050: 5ef1 823d 8f9e dc3c 153d 1cbe fe00 ffbd
00000060: 4d90 85be 90e1 85bc 0987 bfbe 651a 14bc
00000070: f88d a5be a799 d7bd 2dee 3abd 6281 4bbe
00000080: 0ccc 70be c182 413d b31a 00bd 0d8a 99be
00000090: 0a9a ad3d 5ad1 54be 6e11 02bd 48f6 8fbe
000000a0: b13f e2bd 650b 9bbe 84d4 c4bd 8c92 2d3d
000000b0: 3614 7abe 4441 a9bc 1c20 80bd d356 243e
000000c0: 4c71 a7be d077 94bd 2dba 28be 9cad 68be
000000d0: 06d2 7cbd f2b5 98be 7cf4 203d 8a41 16be
000000e0: ce70 d3bd be68 5dbd 43c4 e63d 5ce0 79bd
000000f0: 1fd4 b63d 014b c6be ef25 a4be b40e 00be
00000100: 38f4 83be 73f8 383e a230 68be b95c f8bd
00000110: 557c 9dbe e5de 66be cfbb ab3c caf6 69be
00000120: c723 aabe f14b 40bd f8c6 efbd 5aa4 dbbd
00000130: c485 073e 176b d7be d35a 0b3e 6a4e 08bb
00000140: a67c 0b3d 9bfb 31be fa69 4fbe b740 3b3d
00000150: 6761 19bc fa0a db3d f8e4 1bbe 73da c9bd
00000160: 5e38 d63d 3999 92be 0595 4d3d a0bf 94bd
00000170: e353 39bd 2a42 87bd 2c40 3abe 289c 36bc
00000180: 0ea8 29be a61c 47be c8ba c2bd 8c97 123d
00000190: 5281 51be 3841 3bbe 2565 72be 9867 7dbd
000001a0: 481e 333d cb22 94be 4292 12be f22a fcbc
000001b0: 5e0e 1cbe 06d1 373e 372a 3b38 b569 4fbe
000001c0: 5a20 573d f360 e2bd ce0f ca3c b068 35bd
000001d0: f169 0fbe 10b8 2cbe 9af1 68be 9a1f 66be
000001e0: 0687 1cbe 2b38 153c 05a1 70bc c08e 073e
000001f0: 0273 be3d b375 27be aec1 4c3d 42fc 31be
00000200: b1be 85be cb10 69be 7f16 62be bcfb 2fbc
00000210: 81ee 95be 481a abbe 3954 9bbe 1014 1abe
00000220: 612a 87bd 2b61 eb3d c041 e9bc 1093 443d
00000230: a3da 1d3d 89d0 acbd f3ba 0bbe 48f4 6bbe
00000240: 2bab 4fbe 1ceb a03c 97c3 e13d e78a 143d
00000250: a9f5 94bd d17f 6fbe f812 1c3e 39e7 8abe
00000260: 4a1c 8ebe a614 d43d 7182 10be e319 a83d
00000270: 8a5b 13bf 30cf ae3d 24ab 643e a361 2abd
00000280: c3f9 36be 5021 9cbe 62f9 a1bd 6c14 b4be
00000290: 6639 5a3d 9ee8 8bbe e07a bdbe 8307 53be
000002a0: 0f7f adbb 8729 82bc 2792 8d3d aa5a febc
000002b0: 440e e93d cbd2 94be 0681 20be e48a b7be
000002c0: 8c81 1cbe 835d 1dbe a256 dfbd a798 09be
000002d0: 8005 b43c 79d8 4cbe c80b fa3d 77f6 93bc
000002e0: 0e07 83be 1eed b6be 2b59 dbba a258 79be
000002f0: f976 3d3e 97ed 40be 8a38 153e a782 14be
00000300: 34ee 45be 0058 81be 211b 4dbe 1237 90be
00000310: 3009 253d 90be 75bd 58a4 b53c edb4 89be
00000320: 0463 3d3d 6f9c bfbd 6263 91be 7cba 1a3e
00000330: 0eec 58be 58e4 97bd 9076 db3d 1e04 e6bd
00000340: d91f 2dbe 6746 a8be 07d7 ca3c ce84 48be
00000350: 8ed7 9dbe 2e7d 4bbe df84 58be 05c0 e6bd
00000360: 9016 31bd c05a 82bd f999 55be 8c1e 6abd
00000370: 10fb 24be c2dc bf3c 322d 5f3e 58b4 92be
00000380: a510 043e d8f7 28be 6d5e 6dbe 66a8 45bb
00000390: e71d 643e 18e5 82be 94b3 7abe e52a 80bd
000003a0: 3d0e 54bc 10d6 42be b360 47bd 9f5b b93d
000003b0: ce68 f23c f70a 33be 5ca6 213e d24a a43d
000003c0: 568c 08be 0726 8fbe 6c7a 013c e8dc 81bd
000003d0: 4a02 08be f296 babe 9f82 6bbe 0ade 61bc
000003e0: 6427 82be 81fd 29be b535 103e f2ad 7ebd
000003f0: e1d1 993d 8762 ec3c 57f9 3ebe 4162 023d
0.07366659 -0.22301291 -0.2690335 -0.06038607 0.08091315 -0.18761428 -0.22270718 -0.22464532
-0.118903354 -0.27102596 -0.25784835 -0.17303549 -0.020377437 -0.02160066 0.24458343 0.116636656
-0.21936144 -0.36266652 -0.007967441 -0.14622997 0.063936934 0.026931075 -0.15257676 -0.12451361
-0.26086655 -0.016342908 -0.3740771 -0.009039496 -0.32334876 -0.10527354 -0.0456373 -0.19873574
-0.23515338 0.047243837 -0.031275462 -0.29988137 0.08476646 -0.20782986 -0.031754903 -0.28117585
-0.110473044 -0.3028213 -0.09610847 0.042376086 -0.24421772 -0.020661004 -0.062561244 0.16048746
-0.32703626 -0.07249415 -0.1647727 -0.22722477 -0.06172373 -0.29826313 0.03929566 -0.14673439
-0.1032425 -0.054054968 0.11267903 -0.06100498 0.08927178 -0.38729098 -0.3206019 -0.12505609
-0.25772262 0.18063526 -0.22674802 -0.121270604 -0.3075892 -0.22545965 0.020963578 -0.22848049
-0.3323042 -0.046947423 -0.11707872 -0.10724707 0.13234621 -0.4207389 0.13608865 -0.0020798692
0.03405442 -0.17381136 -0.2025527 0.045716014 -0.009361601 0.10695453 -0.15224063 -0.09856119
0.1045997 -0.28632525 0.050190944 -0.07263112 -0.045246016 -0.06604417 -0.18188542 -0.011145629
-0.16568014 -0.19444522 -0.09508282 0.035789058 -0.20459488 -0.18286598 -0.23671396 -0.061866373
0.04373005 -0.28932795 -0.14313605 -0.030782197 -0.15239856 0.1795083 4.462359e-05 -0.20255168
0.052521087 -0.11053648 0.02466574 -0.04428929 -0.14005257 -0.1686709 -0.22748414 -0.22472993
-0.15285882 0.00910763 -0.014686828 0.13238049 0.0929928 -0.16353492 0.049989395 -0.17381385
-0.26122048 -0.22760312 -0.22078894 -0.0107411705 -0.29283527 -0.33418489 -0.30337694 -0.15046716
-0.0659988 0.11493143 -0.028473735 0.047991812 0.038538586 -0.084382124 -0.13645534 -0.23042405
-0.20280139 0.019643359 0.11023634 0.03626528 -0.072734185 -0.23388602 0.15241611 -0.27129534
-0.27755958 0.10355501 -0.1411226 0.082080625 -0.5756155 0.08535612 0.2233091 -0.04159702
-0.17868714 -0.30494165 -0.07908894 -0.3517183 0.053277396 -0.2732591 -0.3700781 -0.20608334
-0.0052946876 -0.015888942 0.06912642 -0.031049091 0.11379674 -0.29067072 -0.15674219 -0.35848153
-0.15283793 -0.15367703 -0.10905196 -0.13437138 0.021975279 -0.20004453 0.12209278 -0.01806186
-0.2559132 -0.3572778 -0.0016734948 -0.24350217 0.18502416 -0.18840633 0.14572349 -0.14502965
-0.19329149 -0.2526245 -0.2002988 -0.28167015 0.040291965 -0.059996188 0.022173092 -0.26895848
0.046237007 -0.09356009 -0.28396136 0.151102 -0.21183798 -0.074166 0.107159734 -0.11231254
-0.1690668 -0.32866213 0.024760736 -0.19581911 -0.30828518 -0.19871971 -0.21144436 -0.112670936
-0.043234408 -0.063649654 -0.20859517 -0.057158038 -0.16111398 0.023420695 0.21794584 -0.28653216
0.12896974 -0.16500795 -0.23180552 -0.0030160188 0.22277032 -0.2556541 -0.24482566 -0.062581815
-0.012942848 -0.19026971 -0.048676204 0.090506785 0.02959099 -0.17484652 0.15786117 0.08022083
-0.13334784 -0.279587 0.007902723 -0.06340963 -0.13282123 -0.36443287 -0.22999047 -0.013785848
-0.25420678 -0.1660061 0.14082988 -0.062177606 0.07510734 0.028855575 -0.18649803 0.031831983

network.3.weight f4 [157, 381]
00000000: 59ed 5dbd 999f dd3b 1f56 2ebc 0618 cd3b
00000010: 74a9 1abc 08af ccbc 5fd4 693c ceb5 0c3b
00000020: 4279 13bd 8043 67bc f0fc 95bc af6e 6abd
00000030: 14ac 7cbb ba1f c5bc aa20 20bd ce25 69bd
00000040: 615e 4ebc a023 93bc 3cdb 50ba 9883 eabc
00000050: d980 f4bb 1a79 5fbd c980 f8bb ac64 4bbc
00000060: 0353 90bc cf6f 7f3c 626d b9bc 5b09 11bd
00000070: a69b 493c f124 efbb a51a 37bd 9f34 0abd
00000080: f196 c53c 272a a33c b63e 00bd d56b d7bb
00000090: bf9f 2ebd 92a5 0f3d 4bed 19bd 0e96 20bd
000000a0: dea1 3e3c 40cb 533c 0e3d 3abd 1340 fcbc
000000b0: f1c5 6cbc 3dc2 63bb 339b 62bd 210b 00bd
000000c0: 0754 34bb 7e67 53bc 3568 2cbd 19aa ae3c
000000d0: a942 17bb 058c 89bb 63c9 34bc a7ba e9bc
000000e0: 22ab 44bd 7dd0 723c 2c5a 02bd cfc9 94bc
000000f0: 2560 6ebd 70f2 053c d27c 21bd a8b7 b4bc
00000100: 95fa d2bb d723 7e3b 06b4 013c e572 62bc
00000110: 3ed7 0cbd cdbe 67bd b8a9 63bd d825 0c3c
00000120: 1530 debc 0bda 993b 744e 113b c373 01bd
00000130: 3f4e 2fbd 5b4d 253c cd98 43bd 7a3e 43bd
00000140: 4640 6a3b 9448 8dbc d841 0abd da10 5fbd
00000150: 5cf0 e7bc c6ff 743c 2960 0dbd 40ee eebc
00000160: 22db 5e3c 6615 f0bc a552 30bd 81ad 6dbc
00000170: dc22 083d 379a bd3c bcde f1ba 6065 0ebd
00000180: e1c1 78bd 359b 20bd 2c8c 83bc 6d99 f43b
00000190: 2198 f5bc c794 35bb 86ef 6abd 2234 05bd
000001a0: 34db 0c3d a7c4 77bc dd4b 1d3d a5e8 f8bc
000001b0: d7d9 aa3b d734 83bd 4b45 b4bc 060c 9e3c
000001c0: 5b4b a6bb 2aef 863c 7f31 51bd 3299 86bc
000001d0: 680e 26bd 2529 61bd 74da 6a3c 78db 023c
000001e0: 7e07 2d3a ebca 1ebd ade6 d5bc 379f 79bc
000001f0: 427d e33b 867e f43b 8d7b 9abc e810 65b8
00000200: a136 dbbb 7565 753c 77a2 57bd cd1b 52bd
00000210: 734a b33b 2a3e 42bd b5b6 443b 7c1a 053c
00000220: e6f4 71bd 6550 e3bc 2233 7ebd f5f7 fabc
00000230: 16c1 b8bc 871e 5dbc 3482 f1bc 6cd4 28bd
00000240: 59a2 5ebd 78a2 a2bc 540f 61bd 1e64 1abb
00000250: c066 67bd 4a3f e83c 8873 0dbb f578 8abb
00000260: fe80 fc3a 5201 83bb 4828 87bc ed7d c2bb
00000270: 90cb fe39 e0ca 04bd 4923 2dbd aaa7 583c
00000280: 3db4 14bd 3b92 663c 0037 9a3b ea03 7ebd
00000290: b5a8 38bd b10e 5ebc 7283 59bd b83f 16bd
000002a0: 04a8 b73b 1284 13bd b1d7 4bbb f516 48bc
000002b0: ba01 9b3b fae8 76bb 4e48 4fbc efe3 10bb
000002c0: ee66 50bd acac 0ebd f845 36bd a4ec d0bc
000002d0: 6c0b a4bc 6791 47bd a4b6 c1bc efa8 f2bc
000002e0: bd63 2dbd 7c6b 173d 965c 3cbd 08b7 d7bc
000002f0: a0fa b5bc 5dba 2ebd edf2 9bbb 01da 7cbd
00000300: a2ea 673a e1bf 9c3b 6449 9fbc bcda e8bc
00000310: 2ebb 64bd 9444 39bd d3b1 f1ba 715b a93b
00000320: 0495 3cbd f757 0dbd 0fe7 33bd e9db e8ba
00000330: 4f07 ccbc b3be dabc b1d2 43bc 0c26 11bd
00000340: 4070 73bd 5a27 a1bc 1410 7f3c 4b7a 56bc
00000350: d24a 70bd 42ff bcbc 7a27 e2bc 21fb 943c
00000360: d04d 913c 76dc 393b 981b a7bb ab4b 39bd
00000370: 8bb0 113c 570c 68bd 1cc3 59bd de36 e1bc
00000380: edfe 32bd 02bd 8bbc 85c1 31bd b937 25bd
00000390: df22 33bd a2fb 46bc 4b2e 85bc 5eaf 8a3b
000003a0: 72b9 48bd 86be 383b 2ef5 693c 3ced 03bd
000003b0: de6d 60bc 0220 28bd 9b65 5f3c 2141 c9bc
000003c0: b634 73bd 16d8 173d ee45 52bd ab06 05bd
000003d0: 9165 e4bb ef67 28bb 2e0f 05bc e564 b939
000003e0: a2c8 f5bc b144 fc3b ae60 67bc c279 0fbd
000003f0: c669 f8bc 67bb 853c d245 4fbc cd79 edbc
-0.05418143 0.0067634103 -0.01064065 0.0062589673 -0.009439815 -0.024985805 0.014271825 0.0021470669
-0.036004312 -0.014115214 -0.018309087 -0.057234462 -0.0038554715 -0.02406298 -0.03909365 -0.05692082
-0.012595744 -0.017961323 -0.0007967239 -0.028627202 -0.007461649 -0.05455885 -0.0075837118 -0.012414139
-0.017617708 0.015590622 -0.022635166 -0.035409313 0.012305176 -0.007298105 -0.044703145 -0.03374159
0.024119826 0.01991756 -0.031309806 -0.006574134 -0.042632814 0.03507001 -0.037579816 -0.039205603
0.011635272 0.012926877 -0.045468383 -0.030792272 -0.01445149 -0.0034753226 -0.05532379 -0.031260613
-0.0027515905 -0.012903092 -0.042091567 0.021321343 -0.0023080504 -0.0041976 -0.011034342 -0.028531386
-0.048014767 0.014820215 -0.031824276 -0.018162636 -0.05819716 0.008175477 -0.03942568 -0.02206023
-0.006438563 0.0038778686 0.007916456 -0.013821338 -0.03438496 -0.056578446 -0.05558178 0.0085539445
-0.027122537 0.004695182 0.0022172006 -0.03160454 -0.04279923 0.010089244 -0.047753144 -0.047667004
0.0035743876 -0.017246522 -0.0337542 -0.05445943 -0.028312854 0.014953559 -0.034515534 -0.02916634
0.01360205 -0.029307079 -0.043047566 -0.014506699 0.03323637 0.023144824 -0.0018453221 -0.034764647
-0.060731772 -0.039210517 -0.01605805 0.007464579 -0.029979767 -0.0027707086 -0.057357334 -0.03252042
0.034388736 -0.015122569 0.038402427 -0.030384371 0.005213957 -0.06406563 -0.022005698 0.019292843
-0.005074901 0.016471464 -0.051072594 -0.016430471 -0.040541083 -0.05497088 0.01433431 0.007986896
0.00066005427 -0.038767736 -0.026110971 -0.015235714 0.006942422 0.007461372 -0.018857742 -5.46136e-05
-0.006689862 0.0149778025 -0.052645173 -0.051296044 0.0054715215 -0.047422566 0.0030016128 0.00812399
-0.059071444 -0.027748296 -0.062060483 -0.030635813 -0.022553008 -0.013496048 -0.029481031 -0.041218206
-0.054354046 -0.019852862 -0.05494626 -0.002355821 -0.056494474 0.028350491 -0.0021583755 -0.004225845
0.0019264517 -0.00399796 -0.0164987 -0.0059354217 0.0004859832 -0.03242004 -0.04226998 0.013223568
-0.0363047 0.01407295 0.0047062635 -0.06201545 -0.045082767 -0.013553307 -0.05310387 -0.03668186
0.005604746 -0.036014624 -0.0031103904 -0.012212505 0.0047304304 -0.0037675486 -0.012651516 -0.0022108515
-0.05087941 -0.03483264 -0.04450032 -0.025503464 -0.020024978 -0.04872265 -0.02364666 -0.02962157
-0.042331446 0.03696774 -0.045986734 -0.026332393 -0.022214234 -0.0426582 -0.0047591836 -0.061731342
0.00088469137 0.004783616 -0.019444175 -0.028424613 -0.05584257 -0.045231417 -0.0018439837 0.0051683714
-0.04604055 -0.034507718 -0.043921527 -0.0017765734 -0.024905829 -0.02670226 -0.011952088 -0.035436675
-0.05943322 -0.019672085 0.015567798 -0.01309068 -0.058665104 -0.023070935 -0.027606715 0.018186154
0.0177373 0.0028360165 -0.005099725 -0.04523818 0.008892189 -0.056652393 -0.053164586 -0.027491983
-0.043700147 -0.0170579 -0.043397445 -0.040336344 -0.043734428 -0.012144955 -0.016257426 0.004232331
-0.04900498 0.0028189733 0.014279647 -0.032208666 -0.013698069 -0.04104615 0.0136350645 -0.024567189
-0.05937644 0.03707131 -0.05133622 -0.032477062 -0.0069701155 -0.0025696715 -0.008121295 0.00035361122
-0.030002896 0.0076986183 -0.014122171 -0.035028227 -0.030323874 0.016324712 -0.012650924 -0.028988743

network.3.bias f4 [157]
00000000: 43b9 4bbc 15e6 b0bd 7e8f 02bd bf4c 363e
00000010: d22c 6bbd 6111 3a3e 5a11 513e bdb8 23be
00000020: 95e5 7dbd 4e38 9dbc 8821 3cbd ac43 f93d
00000030: 893e 78bd 3b88 0a3e 4f88 f1bd 4003 293e
00000040: 7999 9dbd 6fbb c4bc af6d 66be 6025 5c3e
00000050: 3e1c 3b3e ceb0 16bd 9b6d aabd 6c8d 29bd
00000060: 110b 17bd 5303 353e f92c 6e3e 7b95 153e
00000070: 2f65 1bbd 4e3d c73d afdc 183d 5352 663e
00000080: 7941 393e a052 85bd 35c6 26bd eece b2bd
00000090: 5cab cbbd 49f2 fabc 4247 1f3e 255f 1f3e
000000a0: 213e dcbc e56b 453e e627 223c 8482 0c3e
000000b0: d57b 55bd 75a0 18bd c03a 6b3e c36b 21bd
000000c0: 566d adbb 0219 1e3e ce96 9dbd 81d0 dbbd
000000d0: 0992 0d3e d202 563e 232e 03be 23bc 253e
000000e0: 4e06 ab3d 364d 3abc 8693 a63d 2c1b 55bd
000000f0: 41f6 33bd c51a 223e 0fa8 273e f6ff 0abd
00000100: d6d3 c1bd a598 a6bd 3186 403e a22b 92bd
00000110: 9adb 55bd 2af0 a3bd 47a3 cc3d bd78 13bd
00000120: 4193 0e3e 1f24 4d3e 6610 73bd 28bb 283e
00000130: 8806 1f3e 7e4f bfbb 80f5 8a3d 1c7b 1b3d
00000140: c140 593e 0d05 583e 8ee9 303b 9f0a 383e
00000150: acc9 02bd e70e 513e 6ad7 a0bd a546 42bd
00000160: a64d 503e a450 abbc fbca 4abd b240 9dbd
00000170: 207b 12be a5d3 1bbe e7f2 84bd 9944 50bd
00000180: 504e 4a3e 6dd6 573e 73a2 663e 35c2 00be
00000190: 62c5 3dbd d64a 1e3e a50c cebc 4e7f 423e
000001a0: 4d17 93bd 46d5 5ebc 3b39 003e 9d7d 70bc
000001b0: ca18 013e 739b 15be 00a4 2a3d 74c0 9f3d
000001c0: fe80 503e a4b3 01bd ad7c 10bd 3e9e 453e
000001d0: 6835 78bd 9e41 f13d e9aa 773e 6ade febd
000001e0: 6877 64bb ee05 dcbc 8edc 573d 58d1 b0bc
000001f0: bd83 403e 31eb 443e f894 503e 2d5c 1abe
00000200: e4d5 63bd d9f1 3d3e eab4 083e c801 033e
00000210: 898f fbbd 2b8b 1f3e 7af5 783c 9f53 25bd
00000220: 84f5 1d3e 98ea 003e 8cd2 1bbd 8b7f 283e
00000230: 1bbb 283e 7010 3fbd c969 0b3e 540d f93d
00000240: a412 c0bd d35c e93d 9172 3e3e cdcb 33be
00000250: 780c 66bd 9573 433e 2838 33bc 13cf d4bd
00000260: f4d5 a8bc c669 7dbd 97e7 223e fb1b 59be
00000270: 2e24 f03d
-0.012434307 -0.08637635 -0.031875126 0.17802714 -0.05741579 0.18170692 0.20416775 -0.15988441
-0.061986525 -0.019191887 -0.045930415 0.121711105 -0.060606513 0.1352853 -0.11793577 0.16505146
-0.07695288 -0.024015157 -0.22502778 0.21498632 0.18272492 -0.036789708 -0.08321687 -0.041394636
-0.036875788 0.1767705 0.23259343 0.14607804 -0.037938293 0.0972849 0.037319835 0.22492342
0.18091382 -0.065099 -0.04071637 -0.08730875 -0.099447936 -0.030633109 0.15554526 0.15563639
-0.026885094 0.1927944 0.009897208 0.13721663 -0.05212005 -0.0372624 0.2297163 -0.03940941
-0.005292575 0.15439227 -0.07694779 -0.10733128 0.13825239 0.20899513 -0.12810569 0.1618505
0.08350812 -0.011370948 0.081336066 -0.052027866 -0.043936018 0.15830524 0.16372703 -0.03393551
-0.094642326 -0.081345834 0.1880119 -0.071372285 -0.05221138 -0.08004792 0.0999208 -0.036003817
0.1392336 0.2003331 -0.05934181 0.16477644 0.15529835 -0.0058383336 0.06785107 0.037959203
0.21216108 0.21095677 0.0026994678 0.17972802 -0.03193061 0.20415841 -0.07853587 -0.047430653
0.2034212 -0.020912476 -0.049509984 -0.07678355 -0.14304781 -0.15217455 -0.064916424 -0.05084667
0.19756436 0.2107789 0.22522907 -0.12574084 -0.046330817 0.15458235 -0.025152514 0.18993875
-0.07182179 -0.013600653 0.12521832 -0.014678386 0.12607113 -0.1461008 0.04166031 0.078003794
0.20361707 -0.03166546 -0.03527515 0.19298646 -0.060597807 0.117800936 0.24186291 -0.12444766
-0.003486121 -0.026858296 0.05270057 -0.021584198 0.18800254 0.19230343 0.20369327 -0.15074225
-0.055623904 0.18549289 0.13350263 0.12793648 -0.122832365 0.15580432 0.015195245 -0.04036295
0.15425688 0.1258949 -0.03804259 0.16454904 0.16477625 -0.046646535 0.13614573 0.12160745
-0.093785554 0.11394658 0.18598391 -0.17558213 -0.056164235 0.1908706 -0.010938682 -0.10391059
-0.020609833 -0.06186845 0.15908657 -0.2120208 0.11725651

network.6.weight f4 [462, 157]
00000000: efea 5e3d 6393 cc3b 7664 6dbc 3f15 2b3e
00000010: 0470 09bd 1b07 9cbd 690b a4bd 3ac8 8d3d
00000020: c17a 073c e497 02bd 7e84 393d 7403 05bd
00000030: 58f0 183d f510 15bd fb99 0abd 6a87 62bd
00000040: c5c6 11bc 663f 9d3d f065 733d 360a e13d
00000050: 7bc9 f7bc 62d2 5a3e ffc5 483d da71 003c
00000060: f143 71bd aedf ebbc 9a5e 1f3e 6b67 e7bd
00000070: fd80 90bc e20c 45bd 45a7 be3d 68ba 15bc
00000080: 3a9c e33c dbde d93a 4bbd f4ba 8b9c 903d
00000090: fe13 29be e744 11bc 7071 9c3d 4d9e 5f3c
000000a0: db72 8b3a 16ea 883d 2ff9 1f3e 2074 273d
000000b0: 2787 b8bc ae20 0b3d 9b27 fcbc 584d 423c
000000c0: 508b 17bd 9a7b 8cbd fa17 843b 3da3 413d
000000d0: 3cab 3a3d f986 843c 4cef 133d 7544 cd3b
000000e0: 37d4 6d3d b8d4 073d afb4 b4bb aaf2 373d
000000f0: fbdb 863d 434c a6bd f169 74bd 4d98 3fbc
00000100: 4792 dabc 1d85 01bc 41e5 e03d d476 9c3d
00000110: 79fd d5bb 09ae 8cbd edfb 2e3d 7e61 363d
00000120: ec5f a43a cc49 f73d f88e 233e 4187 61bd
00000130: 303c ea3d 10c0 e23c 61f1 4ebc f636 a53e
00000140: 67cc 973c f0ea 443d ff7e e93e 6edd 8cbd
00000150: 9599 ecbc 7b20 693e 43f9 40bd 4c2a 5dbd
00000160: 38f5 f83b fb01 03bc 21a0 9e3d 9c20 43bd
00000170: d1d8 783d 6a2a d0bc 37fd c03c c985 203c
00000180: eb09 b33d 1caf 583e 5898 1f3e a726 4cbe
00000190: 2011 28bd 3377 b83c 4f4d 4d3d c9ad 243d
000001a0: a79c 853d e086 e23c 6edd 98bc 9dd6 06bc
000001b0: ed69 823e 1989 95bd 0cb4 51ba 5f76 29bd
000001c0: 93a9 183d 4b9c 9e3d 7a6e 98bd d468 5e3e
000001d0: b448 a83c 1c80 f03e c455 ae3d 20c6 6dbd
000001e0: 4d05 80bc d76b 353d 04b4 89bd 21c4 11bb
000001f0: 2d58 4bbd 4574 413c c1b1 533d 5bc6 243d
00000200: 3ada c23c 383e a83d fbdc 1c3e 24e7 bd3d
00000210: c746 91bd 2b75 08bd c94d 453e d298 4d3d
00000220: 3cbf 19bd 8e4a 633d 4c13 ae3b 1e86 d93c
00000230: 8152 b2be cd90 ff3c e0dc 183c 9400 d53d
00000240: 3a88 5c3d 4c17 6e3b 10df 5bbd 3b1f 1a3d
00000250: eba9 6b3d 18ec b4bc 2ed8 063d ba49 b93d
00000260: 0f07 853d f6f6 e23d 4f0b 2fbd 9f4e cdbb
00000270: 4535 7c3b 94ed aa3d 742a 87bc 562d 9dbc
00000280: b9b7 063d a5e5 eb3c 884b 9b3c 0f44 c6bc
00000290: d942 98bc 8494 83bc 3c34 2abd 11c9 a13d
000002a0: 7e2a 90bd dc0a 6e3c fab3 e6bd dda1 df3b
000002b0: 46b4 8dbd c2fa dbbc 0e84 043d e6a7 2b3d
000002c0: 5694 c73d 2af1 523d 38f5 e43d 9c1a a6bb
000002d0: 42f9 ff3c 69f8 56bd 3d81 ab3d 760d 283d
000002e0: f911 bebd 65a4 ef3c e435 793d 8d8b 643e
000002f0: 6efe f4bc 8545 0e3d 211a 8f3d 4597 913d
00000300: 440e 923d 715a 91b8 5a5f 25bd 40d0 c33d
00000310: 39d2 863d 967e 603d d5f0 b83d 8063 bc3c
00000320: 64ab 173d 7681 2cbd d07e bc3c 2f2c 44bd
00000330: 2c33 01bc f8ff 613d 6b1b 93bd 93c1 17bd
00000340: b8d8 dc3a da52 c1bd 50f6 a63d f1b4 9d3c
00000350: c19d 393d bdcd 95bd 8b06 523d 0753 5c3d
00000360: bd4d 9e3d 9e7c dabb 742a 08bc ed28 ddbd
00000370: 75ce b2bb e542 923c 7859 dd3c 2c98 54bd
00000380: 81d3 b53b 2327 b43d 1eac 6fbd dbbd 913d
00000390: f088 91bc 91ff e73d 5fcb 453d 35be 33bd
000003a0: 54a7 c6bb 62f7 073d 6161 b0bc 818f 99ba
000003b0: 9ded 72be 6bd3 a53b fd60 b83d 30bf 1cbd
000003c0: 4e87 8ebd 213d 2a3d 7c16 0f3e 2ad3 f6bb
000003d0: 61dc 68ba e6fc 97bb e6e6 8b3d 27db 0ebd
000003e0: 01fe 6ebd 75fa 593d 6b6f 11ba 5868 133b
000003f0: dbbe 95bc 9c7c f33c f144 d33c fcb4 bb3d
0.05442327 0.006243156 -0.014489284 0.16707323 -0.033554092 -0.07618543 -0.08009989 0.06922956
0.008269013 -0.031883135 0.04529237 -0.032473996 0.037338585 -0.036393125 -0.033838253 -0.055304922
-0.008897488 0.07678108 0.059423387 0.10988276 -0.03024744 0.21369317 0.04901695 0.007839644
-0.058902685 -0.028793182 0.15563431 -0.11299022 -0.017639631 -0.04810799 0.09309248 -0.009138681
0.027784456 0.0016622202 -0.0018672136 0.07061108 -0.16511533 -0.008866525 0.07638824 0.013648582
0.0010639088 0.06685273 0.156224 0.04088223 -0.022525383 0.033966713 -0.030780604 0.0118592605
-0.036998093 -0.068595126 0.0040311785 0.047274817 0.045573458 0.016177641 0.036116883 0.006264264
0.058063712 0.03316185 -0.005514703 0.044909157 0.06584927 -0.081200145 -0.059671346 -0.011694026
-0.026681079 -0.007905272 0.10981227 0.07639852 -0.0065304604 -0.06869132 0.042720724 0.04452657
0.0012540794 0.120746225 0.15972507 -0.05506063 0.11437261 0.027679473 -0.012630791 0.32268494
0.018530084 0.048075616 0.45604703 -0.06878172 -0.028881827 0.22766297 -0.047112714 -0.053995416
0.0075975917 -0.007996078 0.07745386 -0.04763852 0.060753647 -0.02541085 0.023558242 0.009797522
0.08742126 0.21160549 0.15585458 -0.1993662 -0.041031957 0.022517776 0.050122555 0.040204797
0.0652402 0.027652204 -0.018660273 -0.008229879 0.2547144 -0.0730154 -0.00079995464 -0.041372653
0.037271094 0.07744654 -0.07442947 0.21719676 0.02054248 0.4697274 0.08512452 -0.058050275
-0.015627528 0.044292297 -0.067237884 -0.0022242146 -0.049644638 0.011807506 0.05168319 0.04022823
0.0237857 0.08214992 0.15318672 0.09272602 -0.07093578 -0.033314865 0.19267954 0.05019457
-0.03753589 0.055491023 0.005312359 0.02655321 -0.3482857 0.031196976 0.009330004 0.10400501
0.053840853 0.0036329804 -0.053679526 0.03762744 0.057535093 -0.022085235 0.03292101 0.09047265
0.06495487 0.1108226 -0.042735394 -0.006265476 0.00384839 0.08346096 -0.016499735 -0.019186657
0.032890055 0.028796026 0.018956915 -0.024202375 -0.018586563 -0.016062029 -0.04155372 0.078996785
-0.07039355 0.014528956 -0.112647966 0.0068247155 -0.0691915 -0.02685297 0.0323525 0.041908167
0.0974509 0.051499523 0.11179584 -0.00506909 0.031246785 -0.052482996 0.083742596 0.041028462
-0.09280772 0.029253194 0.06084241 0.2231886 -0.029906478 0.034734268 0.069874056 0.071089305
0.07131627 -6.930985e-05 -0.040374137 0.09561205 0.065830655 0.05480822 0.0903031 0.022996664
0.037028685 -0.04211565 0.023009688 -0.0478937 -0.0078857355 0.05517575 -0.07182964 -0.03704984
0.0016849255 -0.09439631 0.08152449 0.019251319 0.04531646 -0.07314632 0.05127577 0.05379012
0.07729671 -0.0066676876 -0.008310903 -0.107988216 -0.0054567405 0.017854163 0.027020201 -0.051902935
0.005548895 0.08796527 -0.058513753 0.0711629 -0.017765492 0.11328042 0.048289653 -0.043882567
-0.0060624275 0.033194907 -0.021530809 -0.0011715741 -0.23723455 0.0050606034 0.09002874 -0.038268268
-0.06959401 0.041562203 0.13973421 -0.007532497 -0.00088829367 -0.004638302 0.0683115 -0.03487697
-0.058347706 0.05321737 -0.00055479136 0.0022492614 -0.018279484 0.029722504 0.02578971 0.091653794

network.6.bias f4 [462]
00000000: 58f5 113e d17e d93e 795b 883e 9b21 2e3e
00000010: b15c d43e c775 193f d0e6 2d3e 02ed d03e
00000020: 9adc 1a3f be9a 433e 9832 c53e f388 1c3f
00000030: 5b46 5a3e ac85 b23e c29b 1e3f 64ef 643e
00000040: 6672 a73e a247 1f3f eae4 5b3e 1ad5 a63e
00000050: 8dc6 203f f27b 333e 554d a03e 09bb 223f
00000060: 19fd 0c3e 14c0 983e 2746 223f d9b8 063e
00000070: 67a5 a23e 6617 1f3f 4d3d 1f3e 8c11 ab3e
00000080: 841a 1c3f c2c9 0c3e ee68 b63e 5b62 1b3f
00000090: 422a 153e e898 ab3e 2425 1b3f 4395 323e
000000a0: f1ad ad3e 4ec7 1b3f c13d 1e3e dad4 d53e
000000b0: 64f9 113f 058a 6b3e ebfd e83e fb81 103f
000000c0: fd51 863e 7b78 cc3e 6920 103f 1b70 833e
000000d0: 882d c93e 5ae2 123f ffc2 703e b775 c83e
000000e0: eb7e 153f 651e 483e 54a3 c23e fa70 173f
000000f0: 3ff0 6b3e 5fe4 bd3e 7fef 193f 64b7 543e
00000100: 15d7 ac3e cf0c 1a3f d8af 103e ed99 a83e
00000110: ade9 193f 6b0b bc3d 5f3d aa3e 9ec0 183f
00000120: 56b0 b53d 5be5 c23e 4da1 173f 785f 983d
00000130: b00c b43e 24ce 143f f443 a53d 1f1a cf3e
00000140: 643a 153f a50e ac3d 71b3 b73e d191 163f
00000150: ecc3 893e 8bd7 db3e 3c29 0e3f b345 333e
00000160: ba9a d33e 2e8b 103f 7429 5e3e caaf cf3e
00000170: 5849 0f3f c1e9 6c3e d86e c93e 83ef 113f
00000180: 7c20 303e 1a01 ca3e 0a65 143f d86d 203e
00000190: 67c2 c93e de09 163f 0c6b 5a3e 4139 c13e
000001a0: e9e8 183f a7aa 3a3e be39 b93e c27c 1a3f
000001b0: 3b4e 233e 37bc af3e fe61 193f d454 013e
000001c0: d508 ad3e 91fa 173f 6820 d33d c50c b23e
000001d0: a73d 163f 3d14 c83d f791 b53e 53c5 143f
000001e0: 2761 bf3d 00fe b63e ab02 163f 79c7 e63d
000001f0: 5e49 bb3e 0ddd 163f d010 b73c 22d9 5e3c
00000200: 437c 453f 2a47 6a3e 9de4 f53e e6d6 0d3f
00000210: e506 813e 108e d63e 1cca 0e3f e3ee 2b3e
00000220: 187b cf3e 356a 103f 3146 c63d 41a4 cd3e
00000230: 7439 133f 15ae 023e 46fc c83e b13c 163f
00000240: 8e60 8f3e 995e cb3e 55de 1c3f a9a6 613e
00000250: f979 c23e ed3f 203f c1ca 623e ef1e ba3e
00000260: 7110 1c3f 5b96 253e bfc6 ae3e 3682 183f
00000270: 9508 d13d 8316 b83e 44dd 153f 8e30 db3d
00000280: c48c bb3e 2ea3 143f bc4b 083e a111 be3e
00000290: 09c0 153f bc46 0b3e a67c c13e fa7b 163f
000002a0: 357e a93c 5f86 6b3c 02a5 453f 1d78 903e
000002b0: a0bd f03e 73e2 0c3f 232b 713e a79d d33e
000002c0: d9a0 0f3f d279 d83d 1b20 cf3e 0a28 0e3f
000002d0: 9c96 553d be9d c63e 6471 113f eb93 e33d
000002e0: ed81 c13e 1f92 153f 3fdb b03e 7bbb ca3e
000002f0: df58 1c3f 8deb ae3e 2a09 a93e 9d59 283f
00000300: 7d0e 853e b300 bf3e e231 1d3f 256b 263e
00000310: 3e3f b23e 5f24 163f 8b09 e63d b85a c03e
00000320: 5c45 153f bf75 0b3e 21e7 c53e a6c9 133f
00000330: 9bf8 313e 3710 c83e 0a67 133f 241c 073e
00000340: fd7c c83e 2e54 163f 94cc 7e3c b0b0 7e3c
00000350: d1d8 453f bc63 833e c2a0 d73e f748 123f
00000360: b312 3a3e db2c ee3e e541 0c3f 6884 7c3d
00000370: ca45 ce3e 1a41 103f fe29 733d f814 c33e
00000380: 43bd 0d3f 689f e13d 3586 b93e c40e 113f
00000390: 3496 7c3e 44ec bd3e 90f1 153f 7bed d73e
000003a0: 58dd bd3e 0617 183f c8b4 bc3e fd12 b43e
000003b0: 792c 153f 2f95 ff3d d6d4 bf3e a113 133f
000003c0: a421 ce3d bef2 cc3e a0e9 113f 3218 1a3e
000003d0: 0cc8 d43e 4d24 133f 8dc8 603e a3bd d33e
000003e0: 3fc4 113f 8444 6c3e f0a0 d03e 4c1f 123f
000003f0: cacb 973c 247e 6f3c 6de3 453f ec68 a53e
0.14253747 0.42479566 0.26632288 0.17005007 0.41476968 0.5994534 0.16982579 0.40805823
0.6049286 0.19101998 0.38515162 0.6114647 0.21315901 0.3486761 0.6195642 0.22356945
0.32704467 0.6221868 0.21474043 0.3258446 0.62802964 0.1752775 0.31309 0.63566643
0.13768424 0.29834044 0.63388294 0.13156451 0.31766817 0.6214508 0.15550728 0.33411825
0.6097796 0.1374884 0.3562693 0.60696954 0.14566901 0.33515096 0.6060355 0.17439751
0.3392177 0.6085099 0.15453245 0.41763955 0.57021165 0.23001869 0.45506224 0.56448334
0.26234427 0.3993567 0.56299454 0.25671467 0.3929255 0.57376635 0.23511885 0.3915231
0.58396786 0.19542845 0.38015234 0.59156764 0.23040865 0.37088296 0.6013107 0.20773083
0.33757845 0.60175794 0.14129579 0.32929936 0.60122186 0.09181865 0.33249947 0.5966891
0.08871524 0.3806561 0.592305 0.07440084 0.3516593 0.58127046 0.08069602 0.40449616
0.5829222 0.08401231 0.3587909 0.5881625 0.2690729 0.42937884 0.5553167 0.17507057
0.41328984 0.5646237 0.216955 0.40563804 0.5597129 0.23136045 0.3934238 0.5700609
0.17199892 0.39453965 0.57966673 0.15666902 0.3940613 0.58608806 0.21329898 0.37738994
0.5973039 0.18229161 0.36176866 0.60346615 0.15947811 0.34323284 0.5991515 0.12630016
0.337958 0.5936671 0.103089154 0.34775367 0.58687824 0.09769485 0.35462925 0.5811359
0.09344702 0.35740662 0.5859782 0.11268515 0.36579412 0.58931047 0.022346884 0.013601573
0.77142733 0.2287871 0.4802598 0.55406034 0.25200573 0.4190526 0.55777144 0.16790347
0.405236 0.5641206 0.09681357 0.40164378 0.5750954 0.1276172 0.3925497 0.5868636
0.28003353 0.3972061 0.6127675 0.22036232 0.37983683 0.62597543 0.22147657 0.36351725
0.6096259 0.16170637 0.34136006 0.59573686 0.10206715 0.35954675 0.5854075 0.107026204
0.36630833 0.5806149 0.1331014 0.37122825 0.5849615 0.13601202 0.37790412 0.58782923
0.020690063 0.014375298 0.77204907 0.2821664 0.47019672 0.55033034 0.23551612 0.41331217
0.5610481 0.105701104 0.40454182 0.55529845 0.052145585 0.38792223 0.56813645 0.111121975
0.37794438 0.5842609 0.34542271 0.3959616 0.61073107 0.34164086 0.33014804 0.6576174
0.25987616 0.3730522 0.6140424 0.1625181 0.34813875 0.5864925 0.11232289 0.37569213
0.5830896 0.13619135 0.386529 0.57729566 0.17379992 0.3907487 0.575791 0.13194329
0.39157858 0.587222 0.015551705 0.015545055 0.7728396 0.2566203 0.42114836 0.57142586
0.18171196 0.46518597 0.5478805 0.06164971 0.4028762 0.5634934 0.05936622 0.38101935
0.55366915 0.110167325 0.36235204 0.56663156 0.24666673 0.3709432 0.5857172 0.4217337
0.37082934 0.5941013 0.36856675 0.35170737 0.58270985 0.124796264 0.37467068 0.57451826
0.1006501 0.40028948 0.5699711 0.15048292 0.41558874 0.57477266 0.21951504 0.4135562
0.5694007 0.23073012 0.40747786 0.57079005 0.018529791 0.014617477 0.7730015 0.32306612
